nets/value_100K.pth (torch_old, 644037 bytes, 25 tensors)

a1.weight f4 [16, 5, 3, 3]
0	0x3e260566	0.16212997
1	0xbdf99cfa	-0.12188144
2	0x3d58f9a7	0.052972462
3	0x3e91e7de	0.28497213
4	0xbddd1338	-0.10794681
5	0xbd1a6665	-0.037695307
6	0x39d9b658	0.00041525322
7	0x3e9eba2c	0.31001413
8	0x3f0650ea	0.52467215
9	0x3db73408	0.08945471
10	0x3e0ca001	0.13732912
11	0xbe8fdb3c	-0.2809695
12	0xbe84396e	-0.25825065
13	0x3e8d5af7	0.27608463
14	0x3c49d826	0.0123196
15	0xbdb73a82	-0.08946706
16	0xbf33e383	-0.7026903
17	0xbf01220f	-0.50442594
18	0x3f01be22	0.50680745
19	0x3eb5e32d	0.35524884
20	0x3e9f4749	0.31109074
21	0xbd78ce59	-0.060743663
22	0xbd4e5b55	-0.05038007
23	0x3e2ebb7d	0.17063709
24	0x3e1eed99	0.15520324
25	0xbe30b230	-0.17255473
26	0xbe754506	-0.23952112
27	0x3ba4595c	0.0050155353
28	0xbe4c01d4	-0.19922572
29	0xbd3d7e9b	-0.04626332
30	0x3d4e419f	0.05035555
31	0xbe93f786	-0.28899783
32	0x3de038fa	0.109483674
33	0xbd8b8733	-0.068128966
34	0x3e5425a3	0.20717482
35	0x3dc9a2e2	0.098455206
36	0x3da6c08e	0.08142196
37	0xbcad2f8b	-0.021140834
38	0xbd47ecb1	-0.04880971
39	0xbdf3e853	-0.11909547
40	0x3d778a25	0.06043448
41	0x3dc1f6c7	0.09470897
42	0x3d61c9d1	0.055124108
43	0xbd7791c6	-0.060441755
44	0xbd47e38a	-0.048800983
45	0xbb6e6dc4	-0.0036381343
46	0xbe404a21	-0.18778278
47	0x3d5e3033	0.054245185
48	0xbd76e64f	-0.060278233
49	0xbd7527f5	-0.05985256
50	0xbcf96f8e	-0.030448701
51	0xbe148d32	-0.14506987
52	0xbe568b82	-0.20951656
53	0x3eb33cdc	0.3500737
54	0x3e14b939	0.14523782
55	0x3d331915	0.043725092
56	0x3e5b073b	0.21389477
57	0x3e9c7061	0.30554488
58	0x3e91b03c	0.2845477
59	0x3cc625cc	0.024187945
60	0x3e9035fc	0.28166187
61	0x3e1e9f12	0.15490368
62	0xbef7bbfe	-0.48385614
63	0x3def0411	0.116706975
64	0xbd460368	-0.048343092
65	0xbd07eff0	-0.033187807
66	0xbdee27ec	-0.11628708
67	0x3d953bf0	0.07286823
68	0x3d8b1f5c	0.06793091
69	0xbe692a1c	-0.2276997
70	0xbe0bcc30	-0.1365211
71	0xbf1d6589	-0.61483055
72	0x3ed49528	0.41520047
73	0xbeeaf695	-0.45891252
74	0x3ecff3d7	0.40615723
75	0x3e4b622e	0.19861671
76	0xbe97172e	-0.29509872
77	0xbee3eda2	-0.44517237
78	0x3eda5d9d	0.42649546
79	0xbf171d70	-0.59029293
80	0x3ea46b1d	0.3211297
81	0x3e094bf5	0.13407882
82	0xbde92a09	-0.11384971
83	0xbda205eb	-0.07911285
84	0xbccea712	-0.02522615
85	0x3d9361b0	0.07196367
86	0x3b1d1c60	0.0023973212
87	0xbddc6183	-0.107607864
88	0x3d43f138	0.047837466
89	0x3d284f54	0.04109128
90	0xbe547549	-0.20747866
91	0xbef294b8	-0.47379088
92	0xbeba7a74	-0.3642155
93	0x3d1e8d06	0.03870871
94	0xbd534fc5	-0.051589746
95	0xbe999ea6	-0.30003852
96	0xbe16bb88	-0.14719975
97	0xbe9ac8db	-0.30231366
98	0xbea52377	-0.3225362
99	0x3e8b7d9d	0.27244273
100	0xbe40d5f3	-0.18831615
101	0x3d1bb84d	0.03801756
102	0x3e989275	0.29799238
103	0x3e762f27	0.24041425
104	0x3eb1d313	0.3473135
105	0x3ee05c87	0.43820593
106	0x3e5e6d8e	0.2172148
107	0x3e955079	0.29162958
108	0xbcf4ea0c	-0.029896758
109	0xbe9c8e86	-0.30577487
110	0x3eabcfc4	0.3355695
111	0xbec83528	-0.39103055
112	0xbda5c797	-0.08094709
113	0x3e03bf49	0.12865938
114	0x3ea5c67d	0.32377997
115	0x3e950e92	0.2911268
116	0x3d5a00b1	0.053223316
117	0xbd8c7911	-0.06859029
118	0x3eb97540	0.36222267
119	0x3eae4d18	0.34043193
120	0xbe17df40	-0.14831257
121	0xbd6586fb	-0.05603693
122	0x3ee29c39	0.44259813
123	0x3d1308e5	0.035897154
124	0xbdde61cf	-0.10858499
125	0xbe83b36a	-0.2572282
126	0x3cd7db3d	0.026349658
127	0xbda734dc	-0.08164379
128	0x3cd6c820	0.026218474
129	0xbcbf5021	-0.023353638
130	0x3ddf60cf	0.10907137
131	0xbcf4b353	-0.029870665
132	0xbbd5016b	-0.006500413
133	0xbdf2e4ac	-0.11860022
134	0x3db50013	0.08837905
135	0xbe5d30aa	-0.21600595
136	0x3e00b09d	0.12567373
137	0x3e93c160	0.2885847
138	0x3e4eeb91	0.20207049
139	0x3e951100	0.29114532
140	0x3e341414	0.17585784
141	0x3d8cb231	0.06869925
142	0x3d8ac15c	0.067751616
143	0x3f0c654a	0.54842055
144	0x3ec67353	0.3875986
145	0xbdf8f455	-0.12155978
146	0x3a8fdef8	0.0010976484
147	0xbe8d4eac	-0.27599084
148	0xbe83013e	-0.25586885
149	0x3e093188	0.13397801
150	0x3d9cc339	0.07654423
151	0xbda2c8a3	-0.07948425
152	0xbee08999	-0.4385498
153	0xbd177e1f	-0.036985513
154	0xbe6a0ffa	-0.22857657
155	0xb9b8e1e2	-0.0003526351
156	0xbdbee1f2	-0.093204394
157	0xbe856753	-0.26055393
158	0x3d458417	0.048221674
159	0xbec94378	-0.39309287
160	0xb8bcd70e	-9.0045956e-05
161	0xbf00bb18	-0.5028548
162	0xbe861d25	-0.2619411
163	0xba3a1ab2	-0.0007099315
164	0xbe30877b	-0.17239182
165	0x3eb80006	0.35937518
166	0x3defb690	0.11704743
167	0xbd8aac76	-0.067711756
168	0x3e131ff9	0.14367665
169	0x3d2a6fb4	0.041610435
170	0x3b9bb619	0.0047519323
171	0x3d69ba1a	0.057062246
172	0x3cb89c63	0.022535508
173	0xbde22927	-0.110430054
174	0x3c6fe3e4	0.014641736
175	0xbd322703	-0.043494236
176	0x3d9a5ea4	0.075375825
177	0xbd2b1a4c	-0.041773126
178	0xbdb17a35	-0.08665887
179	0x3dbc89dc	0.09205982
180	0x3e7c6fc9	0.24652018
181	0xbefb787e	-0.49115366
182	0x3e14cccd	0.1453125
183	0xbe7574da	-0.23970357
184	0xbe401676	-0.18758568
185	0xbdcc4686	-0.09974389
186	0x3e667a85	0.22507675
187	0x3dcb39c2	0.09923126
188	0xbe71aa68	-0.23600161
189	0xbdb5dedf	-0.088804
190	0x3e0be46f	0.13661359
191	0x3d37162a	0.04469887
192	0x3e995996	0.2995116
193	0xbe6b7a98	-0.22995985
194	0xbe29ef9b	-0.16595308
195	0x3d74b514	0.059743002
196	0xbd0a6a75	-0.03379293
197	0x3eb331d5	0.34998956
198	0xbcae4165	-0.021271417
199	0x3edd2118	0.4318931
200	0xbc038099	-0.008026266
201	0xbf0590c0	-0.52173996
202	0x3d979161	0.07400776
203	0x3e5daa4c	0.21646994
204	0x3e6916b9	0.22762574
205	0x3ddc7a19	0.10765476
206	0xbea1f0f1	-0.31629136
207	0xbef0ce50	-0.47032404
208	0x3f249eda	0.6430489
209	0xbe745c61	-0.23863365
210	0x3efa1c9e	0.48849958
211	0xbe5c5111	-0.215153
212	0x3d95d786	0.073164985
213	0xbdcbeb93	-0.099570416
214	0x3e23dc32	0.16001967
215	0x3c8d95dd	0.017283374
216	0xbc254b49	-0.01008875
217	0x3dc13338	0.09433597
218	0xbdb1ddd3	-0.08684888
219	0xbc861c6e	-0.016370978
220	0xbd2b9ddf	-0.041898604
221	0x3d8546bb	0.065076314
222	0xbce204c0	-0.027590156
223	0xbc96cf33	-0.018409347
224	0x3c33d998	0.010977171
225	0x3d928953	0.07155099
226	0xbeb216e4	-0.3478309
227	0xbe431622	-0.19051412
228	0x3d016f0e	0.03160005
229	0xbcd906e1	-0.026492538
230	0x3d455306	0.04817488
231	0xbe7464a4	-0.23866516
232	0x3d55ea9e	0.0522257
233	0x3cf8bb0f	0.030362634
234	0x3c52b31e	0.012860088
235	0xbf1b1d5a	-0.6059166
236	0x3e09339e	0.13398597
237	0xbf51f169	-0.8200899
238	0x3e831d54	0.25608313
239	0xbe1663c1	-0.1468649
240	0xbeebdb09	-0.46065548
241	0x3d42a0ee	0.047516756
242	0xbc81c0e7	-0.015839053
243	0x3e6d11eb	0.23151366
244	0xbdda91eb	-0.10672363
245	0x3e077ce2	0.13231233
246	0xbe02e763	-0.1278358
247	0xbe7583de	-0.23976085
248	0xbde9c605	-0.11414722
249	0xbe80fe37	-0.2519395
250	0xbcb116ea	-0.021617372
251	0xbde8f2d5	-0.113744415
252	0x3cf26a30	0.02959165
253	0x3f2ec37d	0.6826704
254	0x3e95c831	0.29254296
255	0x3eabbc9c	0.33542335

a1.bias f4 [16]
0	0xbe70b73c	-0.23507398
1	0xbd0005ad	-0.031255413
2	0xbd73c4f6	-0.05951401
3	0xbd2b8c4a	-0.041881837
4	0xbe6f0714	-0.23342544
5	0xbe41ced5	-0.18926556
6	0x3cd9b8b0	0.026577324
7	0xbcd797e9	-0.026317554
8	0xbe18e858	-0.14932382
9	0xbeb22ff8	-0.34802222
10	0xbe80c821	-0.25152686
11	0x3e221b72	0.15830782
12	0xbeb8f56b	-0.3612474
13	0x3e5e5a0c	0.21714038
14	0xbe012e63	-0.12615351
15	0xbe2a5392	-0.16633442

a2.weight f4 [16, 16, 3, 3]
0	0xbd66cc30	-0.056347072
1	0x3d8c4838	0.06849712
2	0x3e3e2a10	0.18570733
3	0x3de7955e	0.113077864
4	0xbdfabb32	-0.12242736
5	0xbb6bf823	-0.0036006055
6	0x3e6944d5	0.22780164
7	0x3e28ae15	0.16472657
8	0x3e03d81b	0.12875406
9	0x3c4f8a75	0.012667288
10	0x3e95232e	0.29128402
11	0xbf18c84c	-0.5968063
12	0x3ea175b3	0.3153511
13	0x3e0ac8fa	0.13553229
14	0x3e74c177	0.23901926
15	0x3de735b0	0.11289537
16	0xbc84bec0	-0.016204238
17	0xbe7e118d	-0.24811383
18	0x3e94dbc7	0.29073927
19	0x3d92999c	0.07158205
20	0xbea92a5f	-0.3304014
21	0xbe25cab0	-0.161906
22	0x37f00a6e	2.8615086e-05
23	0x3e28b05f	0.1647353
24	0x3d495245	0.049150724
25	0xbe0bbad0	-0.13645482
26	0xbe8ac5ae	-0.27103943
27	0x3dc50317	0.0961973
28	0x3e92d47c	0.28677738
29	0xbe7f0fba	-0.24908343
30	0x3df72365	0.12067298
31	0xbdc95940	-0.09831476
32	0xbe6d99d2	-0.23203209
33	0x3e08f8dc	0.13376182
34	0x3db692ed	0.089147426
35	0xbcd1651a	-0.025560904
36	0x3e75120a	0.23932663
37	0xbdd4417b	-0.10364052
38	0x3dc07760	0.09397769
39	0x3da1e784	0.07905486
40	0x3ecade57	0.39622757
41	0xbda08c7c	-0.07839295
42	0x3d8efb43	0.06981518
43	0xbd649a4b	-0.055811208
44	0x3dc52e60	0.09627986
45	0x3e0a21ac	0.13489407
46	0xbe6609ed	-0.22464724
47	0xbe5c8cc4	-0.21538073
48	0xbe7bbd33	-0.24583893
49	0xbcae1784	-0.021251447
50	0x3e5c3b48	0.21506989
51	0x3d038f3b	0.032119017
52	0x3abdb742	0.0014474171
53	0xbe059565	-0.1304527
54	0xbdd0ca20	-0.10194802
55	0xbdb9dfd1	-0.09075893
56	0x3e7830fb	0.24237435
57	0x3c30ea24	0.010798011
58	0xbe2f7e33	-0.17137985
59	0x3d3e3f22	0.046446927
60	0xbca04965	-0.019566247
61	0xbe5ce1b8	-0.2157048
62	0x3d87be93	0.06628146
63	0xbcbb4bfd	-0.022863382
64	0x3dc994a3	0.09842803
65	0xbe33a254	-0.17542392
66	0x3db34a27	0.08754378
67	0x3e15eb40	0.14640522
68	0x3eb97e81	0.36229327
69	0x3e61f4e6	0.22066078
70	0x3dac76be	0.08421086
71	0xbe9a6510	-0.3015523
72	0x3e20ab26	0.15690288
73	0xbe84a7ab	-0.2590917
74	0xbe2d032f	-0.16895746
75	0x3dc62964	0.096758634
76	0xb9ce93be	-0.00039401458
77	0x3e333583	0.17500882
78	0x3ea5d46d	0.3238863
79	0xbe1dd7df	-0.1541438
80	0xbd79fd90	-0.06103283
81	0x3db17713	0.0866529
82	0x3d4b3125	0.049607415
83	0xbe35d669	-0.17757572
84	0x3e4bf2f0	0.19916892
85	0xbd5d73eb	-0.054065626
86	0x3e1c5809	0.15267958
87	0x3de820e6	0.113344
88	0x3d84fb51	0.06493247
89	0xbe4a387e	-0.19748113
90	0x3daf9f7e	0.085753426
91	0x3df5ade6	0.11996059
92	0x3e096fb8	0.13421524
93	0xbd75dff3	-0.060028028
94	0x3da58d60	0.08083606
95	0xbda4b60d	-0.08042536
96	0x3d07170e	0.03298097
97	0x3e4d5182	0.20050624
98	0x3d146906	0.03623297
99	0xbd6847cc	-0.056709096
100	0xbd8e154e	-0.06937657
101	0xbe07c8f6	-0.13260254
102	0xbe9a28e3	-0.3010932
103	0x3d8fb0fd	0.0701618
104	0x3d35f13c	0.044419512
105	0x3d89d245	0.06729559
106	0xbeed5c4e	-0.46359485
107	0xbe92d99b	-0.28681645
108	0xb8a4d85c	-7.8604295e-05
109	0xbe292f84	-0.16522032
110	0x3eaab64f	0.33342215
111	0x3dd4557e	0.10367869
112	0x3e6234ac	0.22090405
113	0xbe472c93	-0.19450597
114	0x3ea07657	0.31340286
115	0x3dfffbb1	0.12499178
116	0xbd8ea3a2	-0.06964804
117	0x3e29d432	0.16584852
118	0x3c576db1	0.013148711
119	0xbe232cc9	-0.15935053
120	0x3d588553	0.052861523
121	0x3e7b66a7	0.24550878
122	0xbe6a5178	-0.2288264
123	0xbe1e2aaf	-0.1544597
124	0x3e20621b	0.15662424
125	0x3a094b2f	0.00052373385
126	0x3db71bec	0.089408726
127	0xbead22a9	-0.33815506
128	0x3e87a2a7	0.2649128
129	0xbb090a17	-0.0020910555
130	0xbd3e7a5d	-0.046503413
131	0xbde59f50	-0.11212027
132	0x3e3f474d	0.18679543
133	0xbd9f1615	-0.07767884
134	0x3c8b2df8	0.016989693
135	0xbdcdd50a	-0.100503996
136	0xbe61f559	-0.22066249
137	0xbdf4737f	-0.11936092
138	0xbcff3911	-0.031155141
139	0x3e4774f4	0.19478208
140	0x3c915297	0.017739577
141	0xbee4a8c1	-0.4466
142	0x3d2c5e84	0.042082325
143	0xbd788685	-0.060675163
144	0xbddfa2a0	-0.1091969
145	0xbd23eec7	-0.040022638
146	0x3e760f70	0.24029326
147	0x3e94c883	0.29059228
148	0xbe22cfc3	-0.15899567
149	0x3e5b38c5	0.21408375
150	0xbdef8846	-0.11695914
151	0x3e5b8e4e	0.21441004
152	0x3dd53be2	0.10411812
153	0x3e8772cf	0.2645478
154	0xbf13efb0	-0.5778761
155	0x3d9e1ab8	0.0771994
156	0x3e31450f	0.173115
157	0x3d3054f4	0.043049768
158	0x3dcc28af	0.09968697
159	0xbec8363e	-0.39103884
160	0x3d0326d9	0.03201947
161	0x3e6646dc	0.22487968
162	0x3e3ca9db	0.1842417
163	0xbe96c52c	-0.29447305
164	0xbeafc260	-0.34327984
165	0x3d19d24b	0.037554067
166	0xbd78fefc	-0.060790047
167	0xbe695b48	-0.22788727
168	0xbe253ba7	-0.16136037
169	0xbd4a7e70	-0.049436986
170	0x3cbb423b	0.02285873
171	0xbdb74c08	-0.08950049
172	0xbe36d0ab	-0.17853038
173	0x3f02c344	0.510792
174	0xbdc724bf	-0.09723806
175	0x3c8a93c9	0.016916173
176	0xbdde3e0e	-0.1085168
177	0xbe7be3fd	-0.2459869
178	0xbdfcd15d	-0.123446204
179	0x3e0e96ca	0.13924709
180	0x3e3c0f8e	0.18365309
181	0x3d5cd15a	0.05391059
182	0xbedf87d1	-0.43658307
183	0xbe387a77	-0.18015467
184	0x3e634dfe	0.2219772
185	0x3da0dc17	0.07854479
186	0xbce3e5a7	-0.027819468
187	0x3d3fbb4b	0.046809476
188	0x3e9fa96c	0.31183946
189	0xbd3a0bc6	-0.045421384
190	0xbf304e65	-0.6886962
191	0x3e2503d7	0.16114746
192	0xbe065f20	-0.13122225
193	0x3ec532a0	0.38515186
194	0x3e2f8680	0.17141151
195	0xbe4c1302	-0.19929126
196	0x3d074b95	0.033031065
197	0xbbd61aa4	-0.0065339375
198	0xbd47cbef	-0.04877847
199	0xbeb9d28d	-0.3629345
200	0xbe072022	-0.13195851
201	0xbd7471ee	-0.059678964
202	0x3dc69710	0.09696782
203	0x3e6f0e5a	0.23345318
204	0x3e8b9b98	0.27267146
205	0x3eb30d7d	0.34971228
206	0x3e93c9ca	0.2886489
207	0xbe4d82f5	-0.20069487
208	0xbec0d03b	-0.37658867
209	0xbe2e2e25	-0.1700979
210	0xbc69c6c9	-0.0142685855
211	0xbda3a1ce	-0.07989846
212	0x3b009516	0.0019620112
213	0x3db4309e	0.087983355
214	0xbcd20068	-0.02563496
215	0x3e4f7cc6	0.20262441
216	0xbddb97b9	-0.10722298
217	0x3e224a43	0.15848641
218	0xbe52a477	-0.20570551
219	0x3e3831d1	0.17987753
220	0xbd8ae298	-0.067815006
221	0xbdb8114a	-0.089876726
222	0x3ea57b9b	0.32320866
223	0xbeb82876	-0.3596837
224	0xbd36545b	-0.04451404
225	0xbe2f4562	-0.17116311
226	0x3eca0089	0.39453533
227	0xbeb88c0c	-0.36044347
228	0xbdec4137	-0.11535876
229	0x3a43ac61	0.0007464346
230	0xbdf66e99	-0.120328136
231	0xbac1485a	-0.0014746294
232	0xbd682ffc	-0.056686386
233	0xbd850d53	-0.06496682
234	0x3e6143b6	0.21998486
235	0xbf073302	-0.52812207
236	0xbeaff9fe	-0.34370416
237	0x3e053715	0.13009293
238	0x3d5c49a7	0.053781178
239	0x3dabb719	0.083845325
240	0xbe9da555	-0.307902
241	0x3dfdc133	0.123903655
242	0xbda7039a	-0.08154984
243	0xbcc5360c	-0.024073623
244	0xbde85240	-0.11343813
245	0x3eb6bd05	0.35691085
246	0x3db87611	0.090068944
247	0xbe67057f	-0.2256069
248	0xbdecaf50	-0.11556876
249	0x3e033abc	0.12815374
250	0xbde80b41	-0.113302715
251	0x3ea910f9	0.33020762
252	0x3e81d75b	0.25359616
253	0x3d814ecc	0.063138574
254	0xbdf5a37a	-0.11994071
255	0x3d3d2273	0.04617543

a2.bias f4 [16]
0	0xbe256e68	-0.16155398
1	0x3dc1dfd7	0.09466522
2	0xbd4aa3ac	-0.049472496
3	0xbd7b868c	-0.06140761
4	0x3d18e950	0.03733188
5	0x3e0969fa	0.13419333
6	0x3e9f7e48	0.31151032
7	0xbda662fe	-0.0812435
8	0xbdbb20ee	-0.0913714
9	0xbe194614	-0.14968139
10	0xbe29bbe8	-0.16575587
11	0xbd7f2c33	-0.06229801
12	0xbe45eb36	-0.19328007
13	0xbdac33c8	-0.08408314
14	0x3e02fa5f	0.12790821
15	0x3d64274e	0.055701546

a3.weight f4 [32, 16, 3, 3]
0	0x3e4ee962	0.20206216
1	0xbe85b4db	-0.26114544
2	0x3e186659	0.14882793
3	0xbd8200c1	-0.063478
4	0x3ca21f9e	0.019790467
5	0x3c9b0c01	0.018926622
6	0xbe237167	-0.15961228
7	0xbc8b7eba	-0.017028201
8	0x3d7ad8b4	0.06124182
9	0x3e911e08	0.28343225
10	0xbd85fa7e	-0.06541918
11	0x3eba9bed	0.36447087
12	0xbe4ec1ab	-0.20191066
13	0x3e55493a	0.20828715
14	0xbcbe43dd	-0.02322572
15	0x3e48e212	0.19617489
16	0xbd773af5	-0.06035896
17	0xbeb601c7	-0.3554823
18	0xbb6d0b80	-0.0036170185
19	0xbe6bb530	-0.23018336
20	0xbdf44b9c	-0.11928484
21	0x3ed0c01d	0.4077157
22	0xbec5f179	-0.38660792
23	0xbd9d8ace	-0.076924905
24	0xbed6c31f	-0.4194574
25	0xbdb5575d	-0.08854554
26	0xbf31bc66	-0.694281
27	0xbe277179	-0.1635188
28	0x3e248318	0.16065633
29	0xbe03fa5d	-0.12888475
30	0xbd310fe9	-0.043228064
31	0xbd76b00c	-0.060226485
32	0xbe5cd618	-0.21566045
33	0x3dc02531	0.09382094
34	0xbe35e2c6	-0.17762288
35	0xbe9d1b65	-0.30684963
36	0xbe2ca563	-0.16859965
37	0xbe50aa0f	-0.20377372
38	0x3d98a675	0.07453624
39	0x3dc6d828	0.09709197
40	0xbe4a4a4c	-0.19754905
41	0xbf080a7a	-0.53140986
42	0xbd6996f1	-0.057028715
43	0x3d8f5060	0.06997752
44	0x3d8941f0	0.0670203
45	0xbe96d488	-0.29459023
46	0x3e2c8c53	0.16850404
47	0xbe014acf	-0.12626193
48	0xbe4ca722	-0.19985631
49	0xbf32666e	-0.69687545
50	0xbe633049	-0.22186388
51	0xbf20c2f7	-0.6279749
52	0x3ec22ca0	0.3792467
53	0x3d77d23b	0.060503226
54	0x3d5ab64f	0.05339652
55	0xbdaaf96b	-0.08348354
56	0x3e3edf99	0.18639983
57	0xbe28b9dd	-0.16477151
58	0x3e142d90	0.14470506
59	0xbd4bf358	-0.049792618
60	0x3e2f8ff1	0.17144753
61	0xbe3d7ee0	-0.1850543
62	0x3d05ec10	0.03269583
63	0xbe9fc802	-0.3120728
64	0xbdbc3f57	-0.091917686
65	0x3ed9b738	0.42522597
66	0xbcab054e	-0.020876553
67	0x3e32c1d4	0.17456752
68	0x3e35f925	0.17770822
69	0xbd7bec9b	-0.06150494
70	0xbebfdcd5	-0.3747317
71	0x3e87d648	0.2653067
72	0x3c97b88d	0.018520618
73	0x3d4355a0	0.04768908
74	0xbcd2e4c1	-0.025743844
75	0x3d037309	0.032092128
76	0x3a86e2e8	0.0010291012
77	0x3d905c99	0.070489116
78	0x3cc16e41	0.023612143
79	0x3caaa28d	0.020829463
80	0xbcea3292	-0.028588567
81	0xbd82b1b7	-0.06381553
82	0x3e57f300	0.21088791
83	0x3e3f935d	0.18708558
84	0xbf1e8274	-0.61917806
85	0xbe36ea3d	-0.17862792
86	0xbe715fbe	-0.23571679
87	0xbd1a63b5	-0.037692744
88	0x3ee407f1	0.4453731
89	0xbd3dcf17	-0.046340074
90	0xbeb5769b	-0.3544205
91	0x3e35cab6	0.1775311
92	0xbd05a582	-0.032628544
93	0x3d32512f	0.043534454
94	0xbc3bf874	-0.01147281
95	0xbdabcd4c	-0.08388767
96	0xbe1a8d94	-0.1509307
97	0x3e3a632e	0.18201897
98	0xbdc9d376	-0.09854786
99	0x3e61d5cb	0.22054212
100	0x3effcfb6	0.49963158
101	0xbf01e455	-0.5073903
102	0x3e2faaed	0.17155047
103	0x3ecb1e43	0.39671525
104	0x3ddbdb48	0.10735184
105	0x3d4614b3	0.048359584
106	0xbdc4686e	-0.09590231
107	0x3dd2b024	0.102875024
108	0xbe3add43	-0.18248467
109	0xbeb73228	-0.35780454
110	0x3d3c241e	0.04593288
111	0x3dc390b5	0.09549085
112	0x3d1df196	0.038560472
113	0x3db46c93	0.088097714
114	0xbe830036	-0.25586098
115	0xbd7eb8c2	-0.062187918
116	0xbdea200f	-0.11431896
117	0xbe3f0c95	-0.18657143
118	0x3e1b4237	0.15161978
119	0x3c1c8d76	0.009555211
120	0xbdc68891	-0.09694017
121	0x3dfbfa1e	0.123035654
122	0x3dd4b752	0.10386528
123	0xbde07090	-0.109589696
124	0x3e39a2d0	0.18128514
125	0xbdbe4166	-0.092898175
126	0x3e7da6d7	0.24770676
127	0x3e257d1d	0.16161008
128	0xbc26d4b1	-0.0101825455
129	0x3d9d84aa	0.07691319
130	0x3dbac3dc	0.091193885
131	0x3ec4567f	0.3834724
132	0xbd607b71	-0.054805223
133	0xbe216aa1	-0.15763332
134	0x3e29c5b0	0.16579318
135	0x3e189caf	0.1490352
136	0x3e9bf07f	0.3045692
137	0x3ea2cb90	0.3179593
138	0xbdf0bcec	-0.11754784
139	0x3eb38718	0.35064006
140	0xbeb99cca	-0.36252433
141	0xbe1606f1	-0.14651085
142	0x3e30ec1d	0.1727757
143	0x3dba5a50	0.09099257
144	0xbf0e2122	-0.55519307
145	0x3eb74c6b	0.3580049
146	0xbe7e6912	-0.24844769
147	0x3c1fce37	0.009753755
148	0xbdc1f2ed	-0.094701625
149	0xbdb9d686	-0.0907412
150	0xbe0105ea	-0.12599912
151	0x3dd4d92c	0.10392985
152	0x3c458043	0.012054506
153	0x3e8077bb	0.25091347
154	0xbd489016	-0.048965536
155	0xbd6976b2	-0.056997962
156	0x3bc3dfff	0.00597763
157	0x3e98d089	0.298466
158	0xbea75c15	-0.3268744
159	0x3da7969d	0.08183024
160	0xbb1d1d06	-0.0023973598
161	0x3e02745a	0.12739697
162	0xbd1bfcf8	-0.038083047
163	0xbe9173a0	-0.28408527
164	0xbe2b964a	-0.1675655
165	0xbd8cf801	-0.068832405
166	0x3e542053	0.20715456
167	0x3ef2a2d3	0.4738985
168	0xbe2f9a71	-0.17148758
169	0x3ee6f696	0.45110005
170	0x3e4d9b8e	0.2007887
171	0xbdfc4d77	-0.12319463
172	0x3e2d0f13	0.16900282
173	0x3d69f3ea	0.05711738
174	0xbe88c89e	-0.2671556
175	0x3ec1cec7	0.3785307
176	0xbd9ef851	-0.07762206
177	0x3d580d7f	0.052747246
178	0xbe19a036	-0.15002522
179	0xbdd21b04	-0.10259059
180	0x3e7d07bb	0.2470998
181	0x3dbeb76f	0.09312331
182	0xbe63620c	-0.2220537
183	0xbe03c1e0	-0.12866926
184	0xbe2abd29	-0.16673721
185	0xbcc643f3	-0.024202323
186	0x3d30226a	0.04300157
187	0xbef2f848	-0.4745505
188	0xbd00f914	-0.03148754
189	0xbdcfca51	-0.10146011
190	0x3d78cf07	0.06074431
191	0x3ea3fbbf	0.32028005
192	0xbe8524b8	-0.26004577
193	0x3dbd7f47	0.09252792
194	0x3e4c0b6c	0.19926232
195	0xbe32dab8	-0.17466247
196	0xbe35137b	-0.17683212
197	0xbe521037	-0.20513998
198	0x3e8f0160	0.27930737
199	0xbd515804	-0.05110933
200	0x3e04800d	0.12939472
201	0x3da1d004	0.07901004
202	0x3e3f9d60	0.18712378
203	0xbe670201	-0.22559358
204	0x3dfdfa41	0.12401248
205	0x3e077a2c	0.13230199
206	0xbc7642ef	-0.015030607
207	0xbd50d9b4	-0.050988868
208	0xbe339e6a	-0.17540899
209	0x3d84224f	0.06451856
210	0xbeca0a31	-0.394609
211	0x3ca42593	0.020037448
212	0xbe1a43a9	-0.15064873
213	0x3ea74314	0.32668364
214	0x3e92bbe3	0.2865897
215	0xbdbddb88	-0.09270388
216	0x3cc4b9eb	0.024014434
217	0x3d7ff28e	0.062487178
218	0x3da49916	0.08037011
219	0xbcab59a4	-0.020916767
220	0x3db15440	0.086586475
221	0x3d36c52a	0.044621624
222	0xbc741e8e	-0.014899863
223	0xbd03894d	-0.032113362
224	0x3d67925a	0.056536056
225	0xbe261402	-0.1621857
226	0x3e33b60b	0.17549913
227	0xbd2e4a55	-0.042551357
228	0xbed627e2	-0.41827303
229	0xbe114fe0	-0.14190626
230	0x3f1d99ce	0.6156281
231	0x3de34e27	0.11098891
232	0xbef20ebb	-0.47276863
233	0x3eedd4be	0.46451372
234	0xbd6bb1e6	-0.057542704
235	0x3dc94ab6	0.09828703
236	0xbdc0f963	-0.09422567
237	0x3d537065	0.05162086
238	0x3e2714d0	0.16316533
239	0xbe5858c2	-0.21127608
240	0xbd6d7aca	-0.05797843
241	0x3c2d961c	0.010594871
242	0xbcb23718	-0.021754786
243	0xbe956ffb	-0.29186997
244	0xbe3e96e1	-0.18612243
245	0xbe768ed3	-0.2407792
246	0xbda5c9cb	-0.080951296
247	0xbebb7710	-0.36614275
248	0x3ea88a17	0.32917854
249	0x3d95934d	0.07303486
250	0xbcb2a287	-0.021806015
251	0x3e74b40d	0.23896809
252	0x3e15cc2f	0.14628671
253	0xbde83ac2	-0.11339332
254	0xbdbee2f6	-0.09320633
255	0xbe8ae99d	-0.27131358

a3.bias f4 [32]
0	0xbe57c962	-0.21072915
1	0x3e4ccb9a	0.19999543
2	0xbf08fdd1	-0.53512293
3	0x3be8e7e9	0.007107724
4	0x3e47ffba	0.19531146
5	0xbe74dbda	-0.23911992
6	0xbe99fbd4	-0.30074942
7	0x3ec7b31f	0.39003846
8	0x3ec8bbf2	0.3920589
9	0x3ebc481e	0.3677377
10	0x3e0ca957	0.13736473
11	0xbd899694	-0.067181736
12	0x3e692c53	0.22770815
13	0x3e16e0f9	0.14734258
14	0x3d533655	0.051565487
15	0x3e437dd5	0.1909097
16	0xbf07ef6a	-0.5309969
17	0xbeaa6f1d	-0.33287898
18	0xbd706982	-0.05869437
19	0xbe0c1d56	-0.13683066
20	0x3f10bfdc	0.56542754
21	0x3d95c12f	0.073122375
22	0xbe3a5875	-0.18197806
23	0xbe644a53	-0.22293977
24	0xbe698c7e	-0.228075
25	0xbe1b5fea	-0.15173307
26	0xbef0695f	-0.46955392
27	0x3ec8bcd8	0.39206576
28	0x3cf76ede	0.030204233
29	0x3ea88fd2	0.32922226
30	0xbe0a88be	-0.13528726
31	0xbe0e707a	-0.13910094

b1.weight f4 [32, 32, 3, 3]
0	0xbe3d8bff	-0.18510436
1	0xbeabea85	-0.33577362
2	0x3e831ebf	0.25609395
3	0x3e75a129	0.23987259
4	0x3ceb2df7	0.028708441
5	0xbe073a74	-0.13205892
6	0xbebb25b2	-0.36552197
7	0x3d5b1534	0.053487018
8	0x3e50e51e	0.20399901
9	0x3c3f064d	0.011659217
10	0xbd8d6e95	-0.069058575
11	0xbe6e9ac8	-0.23301232
12	0x3e972fbc	0.29528606
13	0x3e2a2fe8	0.16619837
14	0x3d808256	0.062748596
15	0xbedf3598	-0.43595576
16	0x3e5a38ce	0.21310732
17	0xbdb53a27	-0.08848982
18	0xbe82db06	-0.25557727
19	0x3e0e6d0b	0.13908784
20	0x3dc16411	0.09442914
21	0x3e4eccc5	0.20195301
22	0xbd91702c	-0.07101473
23	0x3e436413	0.19081144
24	0xbdf98a48	-0.12184578
25	0xbc73974d	-0.014867616
26	0xbee87bd2	-0.45406967
27	0xbdc5b39a	-0.09653397
28	0x3ece3cd6	0.4028079
29	0xbea7b7a3	-0.3275729
30	0xbecfc0a3	-0.40576658
31	0xbdf59702	-0.11991693
32	0x3d2a2214	0.041536406
33	0x3de02d92	0.10946192
34	0xbee55789	-0.44793347
35	0xbd15bfd5	-0.0365599
36	0xbd9f7639	-0.07786221
37	0x3e6d569e	0.23177573
38	0xbc538fe9	-0.012912729
39	0xbe830fb0	-0.25597906
40	0xbe88a189	-0.26685742
41	0xbe0dd622	-0.13851216
42	0xbe25da9a	-0.16196671
43	0xbe0bf312	-0.13666943
44	0xbda2c35b	-0.07947417
45	0x3e3dd0ce	0.18536684
46	0xbcecd194	-0.028908528
47	0x3e695984	0.22788054
48	0xbe3f7cf4	-0.1870001
49	0x3e891e1a	0.26780778
50	0x3e40b72b	0.18819873
51	0x3ea875a6	0.3290226
52	0x3e0eb09e	0.13934562
53	0x3d03e94a	0.032204904
54	0x3ef375e8	0.47550893
55	0xbcaa7df2	-0.020812009
56	0xbe61f5a7	-0.22066365
57	0x3e9a0874	0.30084574
58	0xbe70b8a7	-0.2350794
59	0xbe46b3bc	-0.194045
60	0x3e9f35ca	0.31095725
61	0xbe6d8182	-0.23193935
62	0x3d75e6ea	0.06003467
63	0x3da043e9	0.07825453
64	0x3e7e1792	0.24813679
65	0x3e8548e5	0.26032177
66	0x3d82dfe9	0.06390364
67	0xbcc6a9b5	-0.024250844
68	0x3db629fd	0.088947274
69	0x3ea15313	0.31508693
70	0x3e3d3d81	0.18480493
71	0x3e8aebec	0.2713312
72	0x3e16f52e	0.14741966
73	0x3d397d2b	0.045285385
74	0x3e21587c	0.1575641
75	0xbe62d61e	-0.22151992
76	0xbe0a1bbb	-0.13487141
77	0xbebcd3bb	-0.36880288
78	0xbd7fe287	-0.062471893
79	0x3dc75b9d	0.09734271
80	0x3d83e866	0.06440811
81	0x3d91411c	0.07092497
82	0x3c318ae7	0.01083634
83	0xbecf89cb	-0.40534815
84	0x3f02d45a	0.5110527
85	0xbe9760eb	-0.2956613
86	0xbd7676bb	-0.060171824
87	0xbe155ef9	-0.1458701
88	0xbe5a02d2	-0.21290138
89	0x3d9cc0d0	0.076539636
90	0x3da5ffb8	0.08105415
91	0xbe524ee9	-0.20537914
92	0x3eeebc3a	0.4662798
93	0x3e24f06d	0.1610734
94	0xbe80b8b8	-0.2514093
95	0xbd9571c3	-0.07297089
96	0xbec48185	-0.38380066
97	0xbca3a4b1	-0.019975992
98	0x3d87898e	0.06618033
99	0x3cc004c4	0.023439772
100	0xbd05a0dd	-0.032624114
101	0x3df51265	0.11966399
102	0x3d10c158	0.035340637
103	0xbcc2e9c2	-0.023793105
104	0xbddc1de3	-0.10747888
105	0x3c7936c4	0.015210811
106	0xbd0c9241	-0.034319166
107	0x3d1b3dc0	0.037900686
108	0xbc0a0903	-0.008425
109	0x3e96373f	0.29339024
110	0x3bfa3fa0	0.007636979
111	0xbee154ad	-0.44009915
112	0xbed4a3df	-0.41531274
113	0xbe593b9f	-0.2121415
114	0x3e3d5fbb	0.1849355
115	0xbe262c58	-0.16227853
116	0x3e85d6a9	0.26140335
117	0x3ce0376c	0.027370177
118	0xbe7e7ed8	-0.24853075
119	0x3e034fbb	0.12823384
120	0xbda6033a	-0.08106084
121	0xbe3fdce5	-0.18736608
122	0xbe18cf69	-0.1492287
123	0xbd4dd13e	-0.050248377
124	0xbe40cf78	-0.18829143
125	0xbd421a9b	-0.047388654
126	0xbd1a71c8	-0.037706167
127	0xbb21246e	-0.0024588364
128	0x3e7f20cc	0.24914855
129	0xbd036b45	-0.032084722
130	0xbe22a6ad	-0.15883894
131	0xbe05f7cf	-0.13082813
132	0x3ea560f1	0.32300523
133	0xbd07fbe1	-0.033199195
134	0x3d985719	0.074384876
135	0x39ecab16	0.00045140897
136	0xbe0eb853	-0.13937502
137	0xbd396898	-0.045265764
138	0x3d2b5498	0.04182872
139	0xbeb4f041	-0.3533955
140	0xbd3a73cf	-0.0455206
141	0x3f1ff3e3	0.62481517
142	0x3d68438a	0.056705035
143	0xbdd05762	-0.10172917
144	0xbe067c0e	-0.1313326
145	0x3ea97efb	0.3310469
146	0x3dd1ab59	0.1023776
147	0xbeb8a8fc	-0.36066425
148	0x3eb9eec5	0.3631498
149	0x3d885e61	0.06658626
150	0x3e6d2ff3	0.23162822
151	0xbdc78340	-0.09741831
152	0x3d71b695	0.059012014
153	0x3cf208b3	0.029545164
154	0x3d7563ec	0.059909746
155	0x3e34a57d	0.17641254
156	0x3e1f75f1	0.15572335
157	0x3d950ed3	0.07278218
158	0xbc49f306	-0.012326008
159	0x3d971bcd	0.073783495
160	0xbd7a67bc	-0.061134085
161	0xbd9caa96	-0.07649724
162	0xbd58e0d4	-0.052948788
163	0xbe783e95	-0.24242623
164	0xbdc515a8	-0.09623271
165	0xbd42ea2f	-0.047586616
166	0xbd5d5cf9	-0.054043744
167	0x3dbe1bce	0.09282647
168	0xbeabc25e	-0.33546728
169	0xbe4159ac	-0.18881863
170	0x3ebb3300	0.36562347
171	0x3c948b9e	0.01813298
172	0xbe661424	-0.2246862
173	0x3e491a1d	0.19638868
174	0x3c532515	0.012887259
175	0xbe127838	-0.14303672
176	0xbdd46e44	-0.10372594
177	0x3dc1fdc4	0.0947223
178	0x3e0aa163	0.13538127
179	0xbb90b821	-0.004416481
180	0xbdf519e2	-0.119678274
181	0xbca016c7	-0.019542111
182	0xbee33e5d	-0.44383517
183	0xbd43afc9	-0.047775064
184	0x3e085f8f	0.13317703
185	0x3dabebf0	0.08394611
186	0xbeb7625f	-0.3581724
187	0xbd3c0ab4	-0.045908645
188	0x3e395e4c	0.18102378
189	0x3eee1edd	0.46507922
190	0x3df86a73	0.121296786
191	0xbc3918fd	-0.011297462
192	0xbe104d73	-0.14092045
193	0xbdd64179	-0.10461707
194	0x3dcff5d2	0.101543084
195	0xbe12dd62	-0.14342263
196	0x3dd2c58e	0.10291587
197	0x3e46fe98	0.19433057
198	0xbe9b3678	-0.30314994
199	0x3e579d47	0.2105609
200	0x3dcad10b	0.09903153
201	0x3eec1eae	0.46117157
202	0xbf08f32e	-0.5349606
203	0x3e5185d9	0.20461215
204	0xbf1fc126	-0.62404096
205	0xbef428cd	-0.4768738
206	0x3e00eb49	0.12589754
207	0x3e9b2144	0.30298817
208	0x3e02b2ed	0.12763567
209	0x3e920a56	0.2852351
210	0x3d8e0dd1	0.06936229
211	0x3d526d98	0.051374048
212	0xbe03389b	-0.12814562
213	0xbeacf276	-0.33778733
214	0xbf01c917	-0.50697464
215	0x3d3b28b9	0.045693133
216	0xbde0584c	-0.10954341
217	0x3d19d35b	0.03755508
218	0xbcb22a7a	-0.02174877
219	0xbca9df1e	-0.020736273
220	0x3cc1bae7	0.023648692
221	0x3e9a97fa	0.30194074
222	0xbe0707a4	-0.13186508
223	0xbea67940	-0.3251438
224	0x3ca19ffd	0.019729609
225	0xbd0aedb6	-0.033918105
226	0xbd53b520	-0.051686406
227	0xbce4e421	-0.027940812
228	0x3d217593	0.03941877
229	0xbb8d5429	-0.004313011
230	0x3c2f9ef6	0.010719052
231	0xbd70f83d	-0.05883049
232	0xbc8e5c50	-0.017378002
233	0x3d26f13c	0.040757403
234	0xbe476719	-0.19472922
235	0x3e275a88	0.16343129
236	0x3f06fc1b	0.5272843
237	0x3e3ef8f2	0.18649653
238	0x3e804a99	0.25056913
239	0x3d49ec85	0.04929783
240	0xbe8d7e81	-0.27635577
241	0xbe30db24	-0.17271096
242	0x3e7a302a	0.24432436
243	0x3d1fe219	0.039033983
244	0x3d1d8801	0.03845978
245	0x3e08d35a	0.13361874
246	0x3b7aa595	0.0038245667
247	0xbdb48750	-0.08814871
248	0xbe28ac8b	-0.1647207
249	0xbde480d4	-0.111573845
250	0x3dd727f2	0.10505666
251	0xbdbac4ce	-0.09119569
252	0xbda89695	-0.08231846
253	0x3e8a001d	0.2695321
254	0x3e2307ff	0.15921019
255	0x3dc5ce75	0.09658519

b1.bias f4 [32]
0	0xbf0cd0e6	-0.55006254
1	0xbdc2a4eb	-0.09504112
2	0xbd8ca52d	-0.06867442
3	0x3c89db29	0.016828137
4	0xbe552dbb	-0.20818226
5	0xbdddba4a	-0.108265474
6	0xbd216656	-0.039404236
7	0xbd569157	-0.0523847
8	0xbe575368	-0.2102791
9	0x3dff99eb	0.124805294
10	0xbe04ce1a	-0.12969247
11	0xbe169a45	-0.14707287
12	0xbe780751	-0.24221541
13	0x3ce54396	0.027986329
14	0x3dc2eafd	0.09517477
15	0x3e0303d3	0.12794428
16	0x3d9f27fa	0.07771297
17	0xbe2c899e	-0.16849372
18	0xbd853267	-0.06503754
19	0x3c6e1205	0.014530663
20	0x3e9bd0cd	0.3043274
21	0xbd3d06d2	-0.046149082
22	0xbdaef502	-0.08542825
23	0xbd5b291b	-0.053505998
24	0xbd983ee0	-0.074338675
25	0xbeb467c4	-0.35235417
26	0xbda9acfc	-0.08284947
27	0x3cbc9d99	0.023024367
28	0xbe5c3ba2	-0.21507123
29	0xbe02fdbd	-0.12792106
30	0x3e151af0	0.14561057
31	0xbdc605de	-0.09669088

b2.weight f4 [32, 32, 3, 3]
0	0x3df1767b	0.117901765
1	0xbe93b78b	-0.2885097
2	0x3e165918	0.14682424
3	0xbe32d2f2	-0.17463282
4	0xbe9d33d4	-0.30703604
5	0x3e9fc0a5	0.31201664
6	0xbe9d2721	-0.30693915
7	0xbe2ddcc8	-0.16978753
8	0xbc42420d	-0.011856568
9	0x3b8a5da4	0.0042225886
10	0xbd83bd41	-0.06432582
11	0xbc164daf	-0.009173795
12	0xbd0e165c	-0.034689292
13	0xbba94edd	-0.005166872
14	0x3d534aa5	0.05158486
15	0xbcae1253	-0.021248972
16	0xbb8d1d73	-0.004306489
17	0xbcfb5200	-0.03067875
18	0x3d27d103	0.040970813
19	0x3bdbe116	0.006710182
20	0xbcd9889f	-0.026554404
21	0xbce9e700	-0.028552532
22	0xbcb8d447	-0.02256216
23	0x3d3e457c	0.046452984
24	0x3d59bc49	0.05315808
25	0x3cbbbda4	0.022917576
26	0x3b8bf056	0.0042705936
27	0x3eaa648b	0.33279833
28	0xbee582eb	-0.44826445
29	0xbe85dc38	-0.26144576
30	0x3da3ecc5	0.080041446
31	0xbe90de8b	-0.28294787
32	0xbe13d711	-0.1443751
33	0xbe463d17	-0.19359241
34	0x3c62a2f0	0.013832793
35	0x3d8e77ef	0.06956469
36	0xbea45597	-0.3209655
37	0xbe8467fe	-0.2586059
38	0x3dda2a56	0.10652606
39	0x3db4dc94	0.088311344
40	0x3e713089	0.23553671
41	0xbe87924c	-0.26478803
42	0x3dc8af09	0.0979901
43	0x3c571735	0.013128092
44	0xbeb6415d	-0.35596743
45	0x3d2969da	0.041360714
46	0x3cbbaf8b	0.022910854
47	0x3d18e7ad	0.03733032
48	0xbc1d4585	-0.009599094
49	0xbd50ebee	-0.05100625
50	0x3d2cf66b	0.04222719
51	0x3cddbf1a	0.027068663
52	0x3d5644be	0.05231165
53	0xbd49dc7b	-0.049282532
54	0xbc299b9b	-0.010352041
55	0xbe917f7d	-0.28417578
56	0x3da5ba9e	0.08092235
57	0x3e4c894e	0.19974253
58	0xbe59da8b	-0.21274774
59	0x3d0b06b9	0.033941958
60	0xbe907e40	-0.2822132
61	0x3de041e7	0.1095007
62	0xbd8810c5	-0.066438235
63	0xbde4f241	-0.11179019
64	0x3d9104fb	0.07081028
65	0xbb6a737a	-0.0035774396
66	0xbdba2132	-0.09088363
67	0x3c839e69	0.016066747
68	0xbf47a120	-0.7798023
69	0xbe21ef72	-0.15813997
70	0x3e148e7d	0.1450748
71	0xbece927a	-0.40346128
72	0x3e897b54	0.26851904
73	0xbf1c07d8	-0.6094947
74	0x3e15aaf0	0.14615989
75	0x3ce93cce	0.028471377
76	0xbf2431db	-0.64138573
77	0x3f080795	0.5313657
78	0xbee395f9	-0.44450358
79	0xbd1943dc	-0.03741823
80	0x3f204951	0.6261187
81	0x3f1e96c2	0.6194879
82	0xbda6ab14	-0.08138099
83	0x3e9b470a	0.30327636
84	0xbe864480	-0.26224136
85	0xbdee69db	-0.11641284
86	0xbebb4024	-0.36572373
87	0xbe3dd558	-0.18538415
88	0x3de5d530	0.11222303
89	0xbdf432f9	-0.11923785
90	0xbdecfd3b	-0.115717374
91	0xbe595c4e	-0.21226618
92	0xbe41e1ec	-0.18933839
93	0xbd83cfd1	-0.06436122
94	0x3e5aced4	0.21367961
95	0xbdc805b9	-0.097667165
96	0x3d1b2769	0.03787938
97	0x3c4e9925	0.012609755
98	0x3ea68059	0.32519796
99	0x3d05ba56	0.032648407
100	0xbd2158a9	-0.039391194
101	0xbd797f91	-0.060912672
102	0xbd045ebf	-0.03231692
103	0xbd9aef9e	-0.075652346
104	0xbddb095d	-0.10695145
105	0xbce6a67c	-0.028155558
106	0xb9e01359	-0.00042739025
107	0x3d071cfc	0.032986626
108	0xbef8c5c7	-0.48588392
109	0xbf387252	-0.7204944
110	0x3e9aff4d	0.30272904
111	0xbe419944	-0.18906122
112	0x3e4b1b5a	0.19834653
113	0xbd7dcbca	-0.061961927
114	0x3f0852a6	0.5325111
115	0x3da9c569	0.08289606
116	0xbce12e8e	-0.02748802
117	0x3e611427	0.21980344
118	0xbdb1d547	-0.086832576
119	0xbe6e5f2d	-0.23278494
120	0x3cf04157	0.029328031
121	0x3b2c8c9e	0.0026328932
122	0xbe6e7a45	-0.2328883
123	0x3e31d1cb	0.17365186
124	0x3ee81603	0.45329294
125	0x3e52dadb	0.20591299
126	0x3e7185e9	0.23586239
127	0x3b534a65	0.0032240388
128	0xbea2ebe2	-0.3182059
129	0x3e865184	0.26234066
130	0xbe33d3d4	-0.17561275
131	0x3e1ea850	0.15493894
132	0x3d78621b	0.060640436
133	0xbe1b2fd4	-0.15154964
134	0x3e96bf28	0.29442716
135	0x3dc9e24f	0.09857618
136	0x3b5fa232	0.0034123776
137	0x3e809937	0.25116894
138	0x3e142174	0.14465886
139	0xbf22c390	-0.63579655
140	0x3dac7a55	0.084217705
141	0xbe391273	-0.18073444
142	0xbdb6f953	-0.089342736
143	0xbcd886fe	-0.026431557
144	0xbec53c43	-0.3852254
145	0xbe029413	-0.12751798
146	0xbe6c963a	-0.23104182
147	0x3e0a0645	0.13478954
148	0xbd14363b	-0.03618453
149	0x3e151a01	0.14560701
150	0xbcc77ab4	-0.024350502
151	0xbe1ad3fe	-0.15119931
152	0x3db34efc	0.087552994
153	0xbb9db595	-0.004812906
154	0x3da0643d	0.07831619
155	0x3e1f3df6	0.1555098
156	0x3cb7bbc8	0.022428408
157	0xbe536780	-0.20644951
158	0x3db87c56	0.0900809
159	0x3a9f2db2	0.0012144356
160	0x3d7e738f	0.062121924
161	0x3efcbb39	0.4936159
162	0xbe895f7c	-0.2683066
163	0xbe02d2cd	-0.12775727
164	0x3ea9ae4b	0.33140787
165	0x3b97bb84	0.004630508
166	0x3e5dcb47	0.21659575
167	0x3df1a869	0.117997
168	0xbe44e5de	-0.19228312
169	0xbdb70dcb	-0.08938178
170	0xbe607e8c	-0.21923274
171	0x3df41664	0.11918333
172	0xbf6a7d08	-0.9159703
173	0xbdec238d	-0.11530218
174	0xbe41e414	-0.18934661
175	0xbc8bbf2f	-0.017058937
176	0x3d258adb	0.040415626
177	0xbe88e04b	-0.26733622
178	0x3c7cf9a6	0.01544038
179	0x3ea6f1cc	0.3260635
180	0xbd9c059b	-0.07618257
181	0x3d8833e9	0.06650526
182	0x3e8f2265	0.27955928
183	0x3f0d310e	0.55152977
184	0xbe495d84	-0.1966458
185	0x3d39f7b9	0.045402262
186	0x3d20c9fa	0.03925512
187	0xbe432bda	-0.19059697
188	0x3e960835	0.29303136
189	0x3c0f2951	0.008737878
190	0xbc32884f	-0.010896756
191	0xbd13c028	-0.036071926
192	0xbb1b2693	-0.0023674115
193	0x3cd19d71	0.02558777
194	0x3cb6e1d3	0.022324478
195	0xbd3e00c4	-0.04638745
196	0xbd19a6df	-0.037512656
197	0x3d4f70ae	0.05064457
198	0x3d430b6c	0.047618315
199	0x3c32e268	0.010918237
200	0xbd478cda	-0.04871831
201	0xbcadfda2	-0.021239106
202	0x3bc3b0a7	0.0059719863
203	0x3d3d8cf6	0.04627701
204	0x3c52424c	0.012833189
205	0xbdd72918	-0.10505885
206	0xbbcf78ac	-0.006331524
207	0x3d143e62	0.036192305
208	0xbc38cd3f	-0.011279403
209	0xbcd5ef1c	-0.026114993
210	0x3cc2ffa1	0.023803534
211	0x3b37913e	0.0028010155
212	0x3c86d239	0.016457664
213	0xbc00bfa6	-0.007858193
214	0xbb7d76b2	-0.0038675484
215	0x3d5854bb	0.05281518
216	0x3d91a518	0.07111567
217	0x3d113348	0.035449296
218	0xbcc79bed	-0.024366343
219	0x3d946b61	0.072470434
220	0x3d8e2257	0.069401436
221	0x3daecfe3	0.08535745
222	0xbd983aed	-0.07433114
223	0xbdc368b7	-0.09541457
224	0x3e0e7ec1	0.1391554
225	0x3ef6cdee	0.48203987
226	0xbee06f60	-0.43834972
227	0xbeb06726	-0.34453696
228	0x3dd937a4	0.10606316
229	0x3e8b03b9	0.27151278
230	0x3edcbf05	0.43114486
231	0xbd33ae30	-0.04386729
232	0x3e8c8f7a	0.27453214
233	0xbda0cf4e	-0.0785204
234	0xbd08cdec	-0.033399507
235	0x3d1c8304	0.038210884
236	0xbd2e3737	-0.042533126
237	0xbbcaad01	-0.0061851745
238	0xbd75dcef	-0.06002515
239	0xbbbcd8b3	-0.0057631372
240	0xba51e4b3	-0.0008006796
241	0xbcbdfaea	-0.023190934
242	0x3d042d6a	0.032269873
243	0x3d763ffd	0.060119618
244	0x393778b6	0.00017497208
245	0xbced354e	-0.028956082
246	0x3e166b72	0.14689425
247	0xbec3b314	-0.38222563
248	0x3eae923f	0.34095952
249	0x3e21065e	0.15725085
250	0x3e3e89e7	0.18607293
251	0x3e0b1ce7	0.13585244
252	0xbeb44a1c	-0.3521279
253	0xbe2c24fb	-0.16810982
254	0x3d5230c8	0.051316053
255	0x3dfceda3	0.12350013

b2.bias f4 [32]
0	0xbd0519b6	-0.032495223
1	0x3e3f7aca	0.18699184
2	0x3e199bd3	0.15000848
3	0xbef33569	-0.47501686
4	0xbe42fad1	-0.19040991
5	0x3b9d0f6d	0.0047930987
6	0xbeabf2b3	-0.33583602
7	0xbe39e10d	-0.18152256
8	0xbe315681	-0.17318155
9	0xbebc6dbf	-0.3680248
10	0xbdfb1f21	-0.12261797
11	0xbe260fe7	-0.16217004
12	0x3e1c52e2	0.15265992
13	0x3dc78918	0.097429454
14	0xbe257dd4	-0.16161281
15	0xbeef7d13	-0.46775112
16	0xbe26ae33	-0.16277389
17	0xbe9cd47b	-0.3063086
18	0xbe7f6acd	-0.24943085
19	0xbe2513e4	-0.16120869
20	0xbeca85e5	-0.39555278
21	0x3f022a56	0.5084585
22	0xbd89aa54	-0.06721941
23	0xbebc52fb	-0.3678206
24	0x3f392a66	0.7233032
25	0x3e482d97	0.19548641
26	0xbc8f7344	-0.017511018
27	0xbe050a90	-0.1299231
28	0x3cb821a0	0.022476971
29	0x3d4a65fc	0.049413666
30	0xbe75deea	-0.24010816
31	0xbea2b3f3	-0.31777915

b3.weight f4 [64, 32, 3, 3]
0	0xbdcb1d30	-0.099176764
1	0xbd76b605	-0.06023218
2	0xbdb04ee2	-0.08608796
3	0x3c967b01	0.0183692
4	0xbce1b6ba	-0.027552951
5	0xbd62a60a	-0.05533413
6	0x3bbbe161	0.0057336544
7	0x3d2020a7	0.03909364
8	0xbd36e4a7	-0.044651654
9	0xbda24e00	-0.079250336
10	0xbd427ef8	-0.047484368
11	0xbc92c291	-0.017915042
12	0xbc6b2cc7	-0.0143539375
13	0xbd7ad413	-0.061237406
14	0x3d1244f4	0.03571029
15	0xbd8348a5	-0.0641034
16	0xbd090b4e	-0.033458047
17	0xbd03261d	-0.03201877
18	0x3d6fd206	0.058549903
19	0xbcc54002	-0.024078373
20	0xbca25fcf	-0.019821076
21	0xbdd30297	-0.10303228
22	0xbc3fe1e2	-0.0117115695
23	0x3c40db66	0.011771059
24	0xbd3ae8d5	-0.045632202
25	0xbcfbd357	-0.030740423
26	0xbc8e0b7e	-0.017339464
27	0xbc0d0230	-0.008606479
28	0xbd43c1c2	-0.047792204
29	0x3b9e156a	0.00482433
30	0xbc7b87b1	-0.015352176
31	0xbd208c28	-0.039196163
32	0x3d08b80d	0.03337865
33	0xbc9768c3	-0.018482571
34	0x3d324c0f	0.043529566
35	0x3d305a1a	0.043054678
36	0x3d162222	0.036653645
37	0x3c9917f6	0.018688183
38	0xbd7dc338	-0.061953753
39	0xbd72eec1	-0.059309725
40	0xbd810f16	-0.063017055
41	0xbd8db212	-0.0691873
42	0xbd3f5827	-0.046714928
43	0xbdc0b662	-0.09409787
44	0x3ccd7e37	0.025084598
45	0xbcf63c4b	-0.030058047
46	0x3bde4d7d	0.0067841397
47	0x3c709d29	0.014685907
48	0x3cd7599f	0.026287852
49	0x3c3b541d	0.011433628
50	0x3c0d6bca	0.008631656
51	0x3d6fbcf1	0.058529798
52	0x3be7f1d3	0.0070783882
53	0xbceeccae	-0.029150333
54	0xba7e7243	-0.00097063574
55	0xbd4c4bc7	-0.049876954
56	0xbcc9ebe6	-0.024648618
57	0xbd185867	-0.037193682
58	0xbd1e8a0d	-0.038705874
59	0x3ba0dfba	0.004909483
60	0x3d2cafc5	0.042159814
61	0xbd0bdbbf	-0.034145113
62	0xbc05aef7	-0.008159391
63	0xbd140faa	-0.03614775
64	0xbd3cfbf0	-0.046138704
65	0xbcb76614	-0.022387542
66	0xbc519ad8	-0.012793265
67	0x3c681c85	0.014166956
68	0x3d474b79	0.04865596
69	0xbcd97bbc	-0.026548259
70	0xbcb29702	-0.021800522
71	0xbd959877	-0.07304471
72	0xbd61038b	-0.05493502
73	0xbcd11150	-0.02552095
74	0xbd0cd14c	-0.03437929
75	0xbcadeafa	-0.02123021
76	0x3d3db2f7	0.046313252
77	0x3d1c23a5	0.03811993
78	0x3d2bc065	0.04193153
79	0xbd6fb871	-0.058525506
80	0xbd4106f5	-0.047125775
81	0xba261bb5	-0.0006336526
82	0xbcccebba	-0.025014747
83	0xbd92b379	-0.07163138
84	0x3ca54f40	0.02017939
85	0xbd5ffd23	-0.05468477
86	0xbc035f5a	-0.008018339
87	0x3c57472b	0.013139526
88	0xbd98413f	-0.0743432
89	0x3c35abde	0.01108834
90	0xbd2c6cce	-0.04209595
91	0x38be9800	9.088218e-05
92	0x3d2b5cbf	0.041836496
93	0x3d446501	0.047947887
94	0x3c8d8aa2	0.01727802
95	0xbcfe183a	-0.031017412
96	0x3d2dcd6f	0.042432245
97	0xbd11f939	-0.035638068
98	0xbd0c254c	-0.034215257
99	0x3b9f89d8	0.004868727
100	0x3d330493	0.043705534
101	0x3d5a871f	0.053351518
102	0xbd0c0689	-0.03418592
103	0xbc5eb9a4	-0.013594065
104	0xbcc40904	-0.02393008
105	0x3c47ab4c	0.012186836
106	0xbd014ef2	-0.03156943
107	0xbca9a5d5	-0.020708958
108	0xbd6416a0	-0.05568564
109	0xbcbf2384	-0.023332365
110	0xbd2fb427	-0.042896416
111	0x3a4425a7	0.0007482417
112	0xbd8a2c10	-0.067466855
113	0xbcbc6494	-0.022997178
114	0x3bbed1c5	0.0058233463
115	0xbd5d502e	-0.054031543
116	0x3ba02760	0.0048875064
117	0xbd3966bd	-0.045263994
118	0xbc8673ec	-0.016412698
119	0xbcd3613c	-0.0258032
120	0xbca99994	-0.020703115
121	0xbc887003	-0.016654974
122	0xbd47d936	-0.048791133
123	0xbca1a9be	-0.01973426
124	0x3d3b1fff	0.04568481
125	0xbd03cb59	-0.03217635
126	0x3d4e710d	0.050400782
127	0xbc0670ed	-0.008205635
128	0xbd88ee3e	-0.06686066
129	0xbd4336af	-0.047659572
130	0x3cced1db	0.025246551
131	0xbd8fa4b4	-0.070138365
132	0xbdbcd279	-0.09219832
133	0xbda6e911	-0.08149923
134	0x3ce85e39	0.028365241
135	0xbd218ad2	-0.03943903
136	0x3ce603ac	0.028077923
137	0xbce63c1c	-0.028104834
138	0x3b05eddb	0.0020435962
139	0xbd91ee6e	-0.07125555
140	0xbd944578	-0.072398126
141	0xbd2c5a99	-0.04207859
142	0xbdc08e8e	-0.0940219
143	0xbca16c0a	-0.019704837
144	0x3d4b840e	0.049686484
145	0x3c62c59c	0.013841059
146	0x3d3cd205	0.046098728
147	0xbca77b3f	-0.02044451
148	0x3d439f36	0.047759257
149	0xbd54f930	-0.051995456
150	0x3ca3437e	0.019929644
151	0xbd473688	-0.04863599
152	0xbcc7ed7e	-0.024405237
153	0xbc9bbff7	-0.019012434
154	0xbd020f83	-0.031753074
155	0xbda375c9	-0.0798145
156	0x3cfada17	0.030621571
157	0xbb9bc242	-0.004753382
158	0xbd6a1a7a	-0.057154156
159	0xbd047f49	-0.03234795
160	0x3c44528c	0.011982571
161	0xbd7a54d5	-0.06111606
162	0xbb736ecb	-0.0037144895
163	0xbd89a5f4	-0.06721106
164	0xbd0cb7fd	-0.034355152
165	0x3cd6a122	0.026199881
166	0xbb503daa	-0.0031775036
167	0x3bea2f39	0.0071467427
168	0xbd89a592	-0.06721033
169	0xbd7bf82d	-0.061515976
170	0xbc0f2dfa	-0.008738989
171	0xbc7e5fec	-0.015525799
172	0xbda58b5b	-0.080832206
173	0x3bcdeaf2	0.006284111
174	0xbccabe9a	-0.024749089
175	0xbc5b04cd	-0.013367844
176	0xbccd6a9f	-0.025075255
177	0xbd68c3e6	-0.05682745
178	0xbd3ee579	-0.04660556
179	0xbba0405c	-0.0048904847
180	0xbc737d44	-0.014861409
181	0xbd02cce0	-0.031933665
182	0x3c517aac	0.012785595
183	0x3ca129c6	0.01967324
184	0x3cbb89e2	0.022892896
185	0xbb5b6d80	-0.0033482015
186	0xbcfef9da	-0.031124998
187	0xbd5e5ef1	-0.054289762
188	0x3c4be040	0.012443602
189	0xbc7ac299	-0.015305185
190	0xbcb60b35	-0.02222214
191	0xbd413e1e	-0.04717838
192	0xbda1713f	-0.07882928
193	0x3b39a4be	0.0028326954
194	0x3bc830a3	0.0061093136
195	0xbd6b9f23	-0.05752481
196	0xbd09453b	-0.03351329
197	0xbce9d200	-0.028542519
198	0xbd8812c7	-0.066442065
199	0xbd466eb4	-0.04844542
200	0xbd6460e8	-0.05575648
201	0x3c479b2e	0.012182994
202	0xb9f099ed	-0.0004589105
203	0x3a6617c6	0.0008777346
204	0x3b61ddc2	0.0034464453
205	0x3ccd8aca	0.025090594
206	0x3bcfed8d	0.006345457
207	0xbd467702	-0.04845334
208	0x3cc6884c	0.024234913
209	0x3c605ddb	0.013694252
210	0x3cf49748	0.029857293
211	0xbd625c3c	-0.055263743
212	0xbd777f1e	-0.060423963
213	0x3d088dc1	0.033338312
214	0xbdb80d3b	-0.089868985
215	0xbd975aaf	-0.073903434
216	0xbd32e668	-0.043676764
217	0xbd1b95f7	-0.037984814
218	0x3cc4d891	0.024029048
219	0xbcbf67f7	-0.023365004
220	0x3ce0f4fc	0.027460568
221	0xbc946a4d	-0.018117094
222	0xbd6be16f	-0.057588037
223	0xbb9430cd	-0.004522419
224	0x3c309421	0.010777504
225	0xbbf85a6b	-0.007579138
226	0xbd2bc3e7	-0.041934874
227	0xbd5f505f	-0.054520007
228	0x3b355bc3	0.0027673102
229	0xbb982214	-0.0046427343
230	0xbd0a5aa7	-0.03377786
231	0xbd80dcf8	-0.062921464
232	0xbd0f3a38	-0.03496763
233	0xbc7b3eb5	-0.015334775
234	0xbd6af3ad	-0.057361294
235	0x3d134c6f	0.035961565
236	0xbd782d38	-0.06059
237	0xbd2b89af	-0.041879352
238	0xbbe70433	-0.007050061
239	0x3cff1201	0.031136515
240	0xbb8ac9fa	-0.0042355033
241	0x3c83dbad	0.01609596
242	0xbd860b3c	-0.065451115
243	0xbcc06179	-0.023483979
244	0x3cb5e166	0.022202205
245	0xbd7e432f	-0.06207579
246	0x3cd69c96	0.026197713
247	0x3c9ca864	0.019123264
248	0x3d24c5c2	0.04022766
249	0xbd830b15	-0.06398598
250	0xbd23da94	-0.040003374
251	0xbc8a8053	-0.016906893
252	0x398604b0	0.00025561964
253	0x3d41ff07	0.047362354
254	0x3cc49656	0.023997467
255	0xbc993118	-0.018700168

b3.bias f4 [64]
0	0xbd8e4151	-0.06946052
1	0xbc803ad0	-0.015653044
2	0xbe061850	-0.13095212
3	0x3dd1cda3	0.102443
4	0xbe381b26	-0.17979106
5	0xbd781f46	-0.0605767
6	0xbddfe0e7	-0.109315686
7	0x3e0b9ef0	0.13634849
8	0xbd1dc965	-0.038522143
9	0xbe32d25e	-0.17463061
10	0xbdf78b64	-0.120871335
11	0x3ee7d50f	0.45279738
12	0x3a74b26d	0.0009334449
13	0xbe27be8a	-0.16381279
14	0x3d3ee9e8	0.04660979
15	0xbeb57034	-0.35437167
16	0xbdb926ec	-0.09040627
17	0xbd8d5e34	-0.069027334
18	0xbd4162bf	-0.047213312
19	0x3e06c6e7	0.13161813
20	0x3e3887d7	0.18020569
21	0x3d19872e	0.037482433
22	0xbb38ad83	-0.0028179593
23	0xbe63b49d	-0.22236867
24	0x3e9528d5	0.29132715
25	0xbe1881bc	-0.1489324
26	0xbdb24219	-0.087040134
27	0x3e0afa59	0.13572063
28	0xbd885cde	-0.06658338
29	0xbe09b1c7	-0.13446723
30	0x3d23124e	0.03981238
31	0xbdeb860f	-0.11500179
32	0xbe173761	-0.14767219
33	0xbe1088a2	-0.14114621
34	0xbe59fc2f	-0.21287607
35	0x3d3ab4d6	0.045582615
36	0x3e5d6704	0.21621329
37	0xbda4ca8b	-0.080464445
38	0xbd8567df	-0.065139525
39	0xbdff43a0	-0.1246407
40	0xbd4fd22b	-0.05073754
41	0xbe61ae4d	-0.22039147
42	0xbd78b6f3	-0.06072135
43	0xbee6a544	-0.45047963
44	0xbc053c60	-0.00813207
45	0x3e7970f4	0.24359494
46	0x3e61b4e2	0.22041658
47	0xbd1781f8	-0.036989182
48	0xbe287b77	-0.16453348
49	0x3d5a4674	0.053289846
50	0xbd167154	-0.036729172
51	0x3e3b6358	0.18299615
52	0x3df016de	0.117231116
53	0xbe105db7	-0.1409825
54	0xbd053c75	-0.03252836
55	0xbd0c5eea	-0.034270205
56	0xbd93fc5f	-0.0722587
57	0x3d1174e6	0.035511874
58	0x3e04c137	0.1296433
59	0x3e578148	0.2104541
60	0x39ab3e8f	0.0003266227
61	0x3e369fe9	0.17834438
62	0xbed64dd9	-0.41856268
63	0xbe53df97	-0.20690762
